output/TIG.pt (torch, 221015 bytes, 5 tensors)

weight f4 [6, 2, 1, 32]
-0.0050325254 -0.10212176 -0.025574863 0.049994174 0.07866616 -0.06936466 0.0961402 -0.11411538
0.084017105 -0.02302438 -0.008369233 0.008496154 0.09142738 0.01815474 0.014847178 -0.02942951
0.042998496 -0.050241064 0.08734668 0.09957532 -0.091671966 -0.10990182 0.09349597 -0.038558584
0.10107645 0.02542676 0.05468053 -0.06834071 0.048443887 -0.03886607 -0.12497943 0.07575127
-0.068367146 0.09755615 0.049220994 0.10984548 0.03482157 0.021207847 -0.039411932 -0.006336786
-0.10135838 0.105693646 0.009896311 -0.017848022 0.09882329 -0.061448067 0.11614052 -0.032053605
-0.11724161 -0.008605999 0.07230992 0.106130175 0.054188713 -0.015771441 -0.081782274 0.050222218
-0.09568425 0.025126137 -0.009484154 -0.021621652 0.008143042 -0.081996225 0.09151948 -0.09835499
-0.023656437 0.06778098 0.09818701 0.0062336368 0.035364743 -0.036826525 -0.034510497 0.010282909
0.09040729 0.06950844 0.11038711 0.031869944 -0.08680584 -0.05497961 -0.035851244 -0.04019754
-0.08760845 0.042126056 0.047315117 -0.074279316 0.06343932 0.05994412 -0.067347534 0.09984667
0.041806143 0.08508723 0.037253957 -0.028617227 0.10675459 -0.023080314 -0.12459334 -0.046845797
0.11709806 -0.080491036 0.123001546 -0.018004304 0.06821868 -0.07352619 0.059402887 0.06948404
0.113786355 0.05976065 -0.07376997 -0.028257346 -0.00848274 -0.095738456 0.100633025 0.0008049177
0.027996803 0.04907662 -0.056597542 -0.11583714 0.08492389 0.025204951 -0.104859754 -0.11889571
0.10792543 0.09067653 0.12248281 -0.11305158 0.073181316 0.09628385 0.09484649 0.11235587
-0.05739466 -0.036407344 -0.11332685 0.043849446 0.089398324 -0.08079101 -0.07527611 0.040274285
-0.11474389 0.07990213 -0.062835105 -0.11762515 -0.029263107 0.011312644 -0.053059854 -0.08377969
0.04827646 0.011470164 -0.11917552 0.068348154 -0.06577416 0.11505541 -0.10776465 -0.05710409
0.043385558 -0.083713576 0.030818097 0.010851125 -0.066508815 0.032948814 0.109720334 -0.07731637
0.041939728 -0.09550608 -0.07506088 0.052755155 -0.1228353 -0.04941622 -0.057531305 0.11869558
0.124538384 -0.08919013 -0.10210853 0.055652283 0.05661715 -0.069128074 0.001166158 0.018431813
0.046726488 0.053694315 0.12092253 0.06447991 -0.0716285 0.04154987 0.001615294 -0.021210358
0.035013594 -0.042326994 -0.03516052 -0.081886195 -0.11776527 -0.025681049 -0.060955428 0.055247
-0.11960014 -0.005734873 -0.12572199 0.031799596 -0.07328259 0.009887784 -0.052922074 -0.090149455
0.030863125 -0.0013981301 -0.09129561 0.03498132 -0.109750934 0.060907166 -0.047325257 -0.11199496
0.058049794 0.049892496 0.10282502 -0.026728434 0.005041289 -0.112607695 0.036552545 0.113009356
-0.001957087 -0.078709595 -0.08312712 0.07501141 0.09063352 -0.040585507 -0.037287403 -0.041651342
0.05605227 0.069488704 -0.01393126 0.10584381 0.0154262325 0.030135348 0.11257835 0.071966946
0.027336642 0.060629416 -0.08174403 0.087931305 0.09845412 0.02861686 -0.0906502 0.11654273
-0.01205288 -0.033773314 -0.11252202 -0.0641271 -0.05664405 -0.025755197 -0.07269651 -0.05236074
0.03297532 0.06781708 0.04797602 -0.11051802 -0.01933445 0.061881203 -0.08760381 -0.08279768
00000000: e2e7 a4bb 3725 d1bd 6082 d1bc b1c6 4c3d
00000010: b91b a13d 0f0f 8ebd 27e5 c43d 53b5 e9bd
00000020: 2911 ac3d a09d bcbc 1c1f 09bc 7433 0b3c
00000030: 473e bb3d 40b9 943c 9441 733c 2816 f1bc
00000040: 311f 303d 93c9 4dbd d1e2 b23d 25ee cb3d
00000050: 83be bbbd 3514 e1bd d17a bf3d 9bef 1dbd
00000060: 2b01 cf3d c84b d03c b1f8 5f3d 37f6 8bbd
00000070: 196d 463d 0732 1fbd 37f5 ffbd 7b23 9b3d
00000080: 1304 8cbd 85cb c73d f49b 493d abf6 e03d
00000090: 10a1 0e3d 14bc ad3c 686e 21bd d0a4 cfbb
000000a0: fb94 cfbd e975 d83d 2324 223c 0436 92bc
000000b0: dd63 ca3d f8b0 7bbd 15db ed3d a44a 03bd
000000c0: 5f1c f0bd 2d00 0dbc 3917 943d c75a d93d
000000d0: fcf4 5d3d 1c33 81bc 777d a7bd d0b5 4d3d
000000e0: 1bf6 c3bd 54d5 cd3c 6d63 1bbc e41f b1bc
000000f0: 656a 053c a3ed a7bd 916e bb3d 576e c9bd
00000100: 25cb c1bc c1d0 8a3d 4516 c93d 8943 cc3b
00000110: 9fda 103d 69d7 16bd e15a 0dbd a579 283c
00000120: 7527 b93d 715a 8e3d a312 e23d 0f8a 023d
00000130: 43c7 b1bd 4d32 61bd c1d8 12bd 2da6 24bd
00000140: 0f6c b3bd 5f8c 2c3d 7fcd 413d c11f 98bd
00000150: 79ec 813d f787 753d 81ed 89bd 697c cc3d
00000160: eb3c 2b3d 3742 ae3d 9b97 183d ad6e eabc
00000170: 27a2 da3d ed12 bdbc cb2a ffbd 61e1 3fbd
00000180: 1cd1 ef3d 7cd8 a4bd 3ce8 fb3d c37d 93bc
00000190: 3cb6 8b3d e694 96bd 7150 733d a64d 8e3d
000001a0: d208 e93d 95c7 743d b614 97bd f37b e7bc
000001b0: 31fb 0abc 8612 c4bd b018 ce3d 1d01 533a
000001c0: 8d59 e53c 9104 493d d3d2 67bd 063c edbd
000001d0: 94ec ad3d 9d7a ce3c b6c0 d6bd 987f f3bd
000001e0: 0208 dd3d 9eb4 b93d 44d8 fa3d 9687 e7bd
000001f0: 16e0 953d 7830 c53d e03e c23d d61a e63d
00000200: aa16 6bbd de1f 15bd e817 e8bd 7a9b 333d
00000210: 7816 b73d c275 a5bd 5c2a 9abd a6f6 243d
00000220: d8fe eabd baa3 a33d b1af 80bd 74e5 f0bd
00000230: 2fb9 efbc ab58 393c 4a55 59bd b094 abbd
00000240: 8abd 453d 5bed 3b3c 4c12 f4bd 1efa 8b3d
00000250: 9ab4 86bd 2ca2 eb3d b6b3 dcbd fae5 69bd
00000260: 0eb5 313d 0672 abbd 3c76 fc3c ebc8 313c
00000270: c635 88bd 56f5 063d 0eb5 e03d 0c58 9ebd
00000280: fec8 2b3d b198 c3bd 85b9 99bd ca15 583d
00000290: 1391 fbbd aa68 4abd f2a5 6bbd ab16 f33d
000002a0: fb0d ff3d 51a9 b6bd 471e d1bd a6f3 633d
000002b0: 62e7 673d 0593 8dbd c5d9 983a 50fe 963c
000002c0: 4664 3f3d 92ee 5b3d 3ba6 f73d 0b0e 843d
000002d0: f7b1 92bd 3230 2a3d 46b8 d33a 58c1 adbc
000002e0: 6a6a 0f3d 125f 2dbd 7a04 10bd f3b3 a7bd
000002f0: eb2e f1bd 1061 d2bc 66ac 79bd ae4a 623d
00000300: ebf0 f4bd 9aeb bbbb 44bd 00be 4b40 023d
00000310: 2f15 96bd 5f00 223c d1c4 58bd 47a0 b8bd
00000320: aad4 fc3c 7641 b7ba 31f9 babd 9348 0f3d
00000330: 19c5 e0bd cb79 793d 21d8 41bd 9d5d e5bd
00000340: 9fc5 6d3d 135c 4c3d ed95 d23d 97f5 dabc
00000350: 6631 a53b dd9e e6bd 1fb8 153d 7371 e73d
00000360: 7942 00bb 7f32 a1bd 8d3e aabd 959f 993d
00000370: 119e b93d fd3c 26bd adba 18bd 999a 2abd
00000380: 1197 653d 1850 8e3d f13f 64bc a4c4 d83d
00000390: 4fbe 7c3c 68de f63c 7a8f e63d 6863 933d
000003a0: 18f1 df3c 8d56 783d 6a69 a7bd 5415 b43d
000003b0: 50a2 c93d e86d ea3c d0a6 b9bd f4ad ee3d
000003c0: 7179 45bc e355 0abd f271 e6bd 1255 83bd
000003d0: 9703 68bd 90fc d2bc e8e1 94bd 3778 56bd
000003e0: 2111 073d aee3 8a3d 8182 443d 4657 e2bd
000003f0: 4863 9ebc 2577 7d3d a069 b3bd d491 a9bd

bias f4 [6]
-0.04193834 0.053114958 0.059482068 -0.07142973 -0.067878835 -0.11594329
00000000: 89c7 2bbd 128f 593d 78a3 733d c049 92bd
00000010: 0f04 8bbd ad73 edbd

W f4 [6, 7]
0.14394224 0.9572702 0.28369313 0.22268021 0.22994822 0.8215645 0.46857363 0.24810553
0.8206304 0.06665206 0.60014194 0.016732931 0.18050146 0.6051224 0.72164434 0.926335
0.3651604 0.4602421 0.10035056 0.60468924 0.69005674 0.2624023 0.0019491911 0.64784664
0.07376826 0.537915 0.38835335 0.82043093 0.75066173 0.43959326 0.5954214 0.70872796
0.08989459 0.71369976 0.60283774 0.9456083 0.1779502 0.6861309 0.087034166 0.5259669
0.5362958 0.64583373
00000000: 9865 133e a90f 753f 3a40 913e 4806 643e
00000010: 8c77 6b3e 0d52 523f e2e8 ef3e 600f 7e3e
00000020: d514 523f e080 883d e7a2 193f 8013 893c
00000030: 60d5 383e 4de9 1a3f afbd 383f 4a24 6d3f
00000040: 4ef6 ba3e daa4 eb3e 9884 cd3d eacc 1a3f
00000050: 8fa7 303f 9859 863e 007c ff3a 47d9 253f
00000060: d013 973d ccb4 093f 40d6 c63e c307 523f
00000070: 5e2b 403f 5e12 e13e 896d 183f 326f 353f
00000080: a81a b83d 07b5 363f 9353 1a3f 6313 723f
00000090: 9438 363e 46a6 2f3f f83e b23d c4a5 063f
000000a0: ae4a 093f 5c55 253f

weight f4 [64, 7, 1, 120]
0.0320904 -0.0017571195 0.019459581 -0.022371558 -0.006310946 -0.030578827 0.020406956 -0.027313938
-0.003127363 0.0007437908 0.014275307 0.018287348 -0.018196367 -0.015031567 0.018825045 -0.0050705005
-0.0067268335 -0.0049973787 -0.014497373 -0.00095565326 0.026013447 -0.016061332 -0.02218181 -0.019792518
0.015621732 -0.023311345 0.011738544 -0.02222942 -0.0035088887 0.016859764 0.0060077286 0.027511725
0.0042150742 0.0005726061 -0.0068880846 -0.0069278576 -0.01152264 0.004953002 0.00083292584 -0.031489413
0.019750988 -0.0076003806 0.0031989287 0.0007757425 0.008580131 -0.0016973063 -0.010833392 -0.018955965
-0.015610924 -0.022299508 -0.026236266 -0.023189804 0.029097037 -0.0064486363 0.01681657 0.027241139
0.027895318 -0.017858133 0.01425747 -0.010005329 -0.021303395 0.025845235 -0.013776274 0.008047158
-0.02236407 0.017469844 -0.006361241 -0.029449185 0.016939668 0.027054893 0.032067668 -0.0001336195
-0.024018496 0.021678844 0.006039982 0.0109743755 0.004408346 0.015700398 -0.0011088075 0.017380213
-0.026654704 0.029435026 -0.030724464 0.0077288677 0.010380184 -0.03434519 -0.028341923 0.020202337
-0.0111061 -0.03019335 -0.00917837 0.014546683 -0.019829785 -0.033102077 0.0226415 0.0064624636
-0.0027105962 -0.0071646427 0.030172186 0.006639482 -0.025617888 -0.012932189 0.025689272 0.031516884
-0.004941395 0.015348754 -0.023070429 -0.0012501449 -0.019242516 0.02827418 0.031712968 -0.030394996
-0.0012157158 0.021625074 0.023119071 -0.019159975 -0.018455107 0.0040468774 0.03375719 -0.0010076547
-0.0015525131 -0.023110788 0.00449901 -0.0053224107 0.006057675 0.0082880305 0.015515437 0.010837541
-0.007686303 0.032796524 0.010982682 -0.025541058 0.023156587 -0.0009799988 -0.005580998 -0.00961076
-0.0067762146 -0.0003751457 -0.005677414 0.0024729506 -0.01691718 0.0149214985 -0.02959471 0.013722719
0.014256486 0.0034059384 0.006531856 -0.00078433135 -0.027474677 0.026653271 0.013272629 -0.002922745
-0.015229159 0.0010671371 -0.01997403 0.017342165 -0.007496721 0.024702389 0.013372277 0.027067598
-0.018384956 -0.03256137 -0.03093877 0.024665337 -0.018456582 -0.01854185 -0.012697308 0.02227706
-0.022642417 -0.024816878 -0.0044789603 -0.028760385 -0.02719638 0.016801067 -0.026936583 -0.031860955
-0.030388376 -0.029084062 0.026825786 -0.0007392218 -0.021955589 0.03126 -0.006474345 0.0046635894
-0.004722518 -0.00472406 0.01294746 -0.013709796 0.020453151 -0.028121015 0.011005905 -0.004431811
-0.02043169 0.027528755 -0.0264257 0.011883964 0.0022652955 -0.0060341647 -0.00394918 0.013185327
-0.0002114341 0.029620916 0.020877738 -0.028786032 -0.012186571 -0.0054164203 -0.017422022 0.027493082
0.029281706 -0.013681128 0.021732107 0.032003716 0.016341776 -0.013296996 0.022463087 0.03180547
-0.00069286063 0.030600168 -0.020940559 -0.014949919 0.013856486 0.022108588 0.024926674 -0.011075591
0.017843366 -0.031607896 -0.024826376 0.023333129 0.0036666936 -0.002869056 -0.005809839 -0.017391305
0.027005356 -0.00995163 0.014139914 0.009513591 -0.024664931 0.023632146 -0.034871187 -0.0044766823
0.033253327 -0.024205538 0.00033586964 0.0055470807 -0.004058464 0.031275198 0.017402126 0.009311204
0.024267314 -0.03262848 0.009121918 -0.004538094 -0.011157957 -0.008960902 0.014441908 0.025284903
00000000: 3971 033d 264f e6ba b369 9f3c 8f44 b7bc
00000010: 0dcc cebb 7380 fabc 7d2c a73c 7bc1 dfbc
00000020: 72f4 4cbb f5fa 423a fae2 693c 59cf 953c
00000030: 8c10 95bc f646 76bc fb36 9a3c 7126 a6bb
00000040: c56c dcbb 0dc1 a3bb 6486 6dbc ce84 7aba
00000050: 271a d53c 0e93 83bc a1b6 b5bc eb23 a2bc
00000060: 4bf2 7f3c 6ff7 bebc 0653 403c 791a b6bc
00000070: 62f5 65bb 7d1d 8a3c 7bdc c43b 4560 e13c
00000080: 9b1e 8a3b f21a 163a 71b5 e1bb 1503 e3bb
00000090: 74c9 3cbc cb4c a23b b558 5a3a 0bfb 00bd
000000a0: d3cc a13c 9d0c f9bb 1ea5 513b 335b 4b3a
000000b0: ae93 0c3c 2678 deba 8a7e 31bc 8a49 9bbc
000000c0: f6c4 7fbc 75ad b6bc 70ed d6bc 8bf8 bdbc
000000d0: e95c ee3c 154f d3bb e7c2 893c cf28 df3c
000000e0: b984 e43c 384b 92bc 2a98 693c 64ed 23bc
000000f0: 7584 aebc 63b9 d33c e2b5 61bc 3ad8 033c
00000100: db34 b7bc eb1c 8f3c f571 d0bb 6b3f f1bc
00000110: 0fc5 8a3c 39a2 dd3c 6359 033d 361c 0cb9
00000120: 70c2 c4bc d597 b13c 0beb c53b decd 333c
00000130: e373 903b 1f9e 803c 6855 91ba f360 8e3c
00000140: f75a dabc b921 f13c dfb1 fbbc 7142 fd3b
00000150: a611 2a3c 8bad 0cbd 522d e8bc 5f7f a53c
00000160: 5cf6 35bc 0b58 f7bc e060 16bc 3655 6e3c
00000170: 1372 a2bc 0b96 07bd ab7a b93c 13c3 d33b
00000180: 42a4 31bb 61c5 eabb a92b f73c 0390 d93b
00000190: 9bdc d1bc 88e1 53bc 4f72 d23c d917 013d
000001a0: 6deb a1bb 5779 7b3c 32fe bcbc e7db a3ba
000001b0: 7ba2 9dbc 419f e73c 75e5 013d edfe f8bc
000001c0: a758 9fba 1127 b13c 3564 bd3c 61f5 9cbc
000001d0: 2a2f 97bc ab9b 843b fb44 0a3d 4813 84ba
000001e0: b27d cbba d652 bdbc 6e6c 933b 9e67 aebb
000001f0: 767f c63b 85ca 073c 7634 7e3c f18f 313c
00000200: 62dd fbbb a655 063d b5f0 333c 7b3b d1bc
00000210: e2b2 bd3c 4e73 80ba cee0 b6bb 7376 1dbc
00000220: 020b debb 34af c4b9 9a09 babb 3a11 223b
00000230: e695 8abc 4d79 743c 9b70 f2bc 41d5 603c
00000240: 0994 693c 2a36 5f3b 2e09 d63b 969b 4dba
00000250: 9312 e1bc f657 da3c 7175 593c 868b 3fbb
00000260: b983 79bc 2edf 8b3a 94a0 a3bc 2811 8e3c
00000270: 0ea7 f5bb aa5c ca3c 6517 5b3c debc dd3c
00000280: 0c9c 96bc 125f 05bd 4e73 fdbc f60e ca3c
00000290: 4232 97bc 14e5 97bc 5f08 50bc 627e b63c
000002a0: 977c b9bc c44c cbbc 3ec4 92bb e69a ebbc
000002b0: f1ca debc 64a2 893c 1caa dcbc a280 02bd
000002c0: 0bf1 f8bc b341 eebc c0c1 db3c 56c8 41ba
000002d0: 35dc b3bc 7c0a 003d be26 d4bb 06d1 983b
000002e0: 5abf 9abb 4acc 9abb 9521 543c 0d9f 60bc
000002f0: 5e8d a73c 0b5e e6bc 1d52 343c ba38 91bb
00000300: 5c60 a7bc fc83 e13c b67a d8bc f5b4 423c
00000310: 5a75 143b 3eba c5bb 1f68 81bb 4507 583c
00000320: 69b4 5db9 90a7 f23c ca07 ab3c afd0 ebbc
00000330: 2faa 47bc 3a7c b1bb a1b8 8ebc 2c39 e13c
00000340: 30e0 ef3c cf26 60bc 8807 b23c 5416 033d
00000350: 30df 853c a5db 59bc 8204 b83c 7446 023d
00000360: 17a1 35ba 34ad fa3c 898b abbc 81f0 74bc
00000370: 5106 633c 121d b53c 0633 cc3c 6576 35bc
00000380: 402c 923c 4877 01bd af60 cbbc 1e25 bf3c
00000390: e94c 703b c606 3cbb 7660 bebb 3678 8ebc
000003a0: 563a dd3c 290c 23bc 19ab 673c e5de 1b3c
000003b0: 1c0e cabc 3498 c13c 17d5 0ebd 22b1 92bb
000003c0: a434 083d b14a c6bc a917 b039 49c4 b53b
000003d0: ddfc 84bb 6c1a 003d e78e 8e3c 058e 183c
000003e0: 3fcc c63c 71a5 05bd 1974 153c 4bb4 94bb
000003f0: ddcf 36bc bfd0 12bc c19d 6c3c 4922 cf3c

bias f4 [64]
0.008019615 0.026909795 0.027570782 0.008415808 -0.021501793 -0.0074642645 -0.013273374 -0.01703085
0.030097459 0.022902265 -0.016240725 0.018725837 0.011485571 0.012300457 -0.032337002 -0.024126492
-0.028480954 0.014612354 -0.019000728 -0.006659476 -0.0033784085 -0.0019172424 0.028601458 0.011180276
-0.007815674 0.0007227347 -0.006497062 -0.00025623848 -0.022269135 0.0190781 0.01561661 -0.029387474
0.01586175 0.013344204 -0.01917823 0.023054453 -0.015539871 -0.026090369 0.017346814 -0.0013189283
0.000705901 0.0261486 -0.0015337773 0.027889768 0.02751448 0.011378654 0.021374457 0.010386334
0.03203992 -0.0028946975 -0.015446781 0.023284644 -0.022079295 0.017868951 -0.00039289604 0.008093898
-0.024995351 0.013476284 -0.027404653 0.009195353 0.033084452 -0.0027548997 -0.004136514 -0.0003453581
00000000: b464 033c ee71 dc3c 1fdc e13c 75e2 093c
00000010: 8724 b0bc ca96 f4bb 9178 59bc 4884 8bbc
00000020: f28e f63c 889d bb3c 450b 85bc ed66 993c
00000030: fa2d 3c3c db87 493c ce73 04bd eca4 c5bc
00000040: e450 e9bc a868 6f3c 6aa7 9bbc bc37 dabb
00000050: 4a68 5dbb fb4b fbba 9b4d ea3c 7a2d 373c
00000060: 500d 00bc e875 3d3a 4ee5 d4bb bf57 86b9
00000070: c36d b6bc ad49 9c3c cfdc 7f3c 00be f0bc
00000080: 80f0 813c a6a1 5a3c aa1b 9dbc b1dc bc3c
00000090: f19a 7ebc 78bb d5bc e81a 8e3c e4df acba
000000a0: 370c 393a 9735 d63c 0709 c9ba 1579 e43c
000000b0: 0c66 e13c 896d 3a3c 7c19 af3c 712b 2a3c
000000c0: 4b3c 033d f7b4 3dbb 7f14 7dbc 70bf be3c
000000d0: a3df b4bc e861 923c 9dfd cdb9 459c 043c
000000e0: 0dc3 ccbc a2cb 5c3c b97f e0bc 1ba8 163c
000000f0: 9083 073d 8c8b 34bb 988b 87bb 2e11 b5b9
