output/TIG_Downstream.pt (torch, 462391 bytes, 9 tensors)

weight f4 [6, 2, 1, 32]
000000 e2 e7 a4 bb 37 25 d1 bd 60 82 d1 bc b1 c6 4c 3d
       -0.0050325254 -0.10212176 -0.025574863 0.049994174
000010 b9 1b a1 3d 0f 0f 8e bd 27 e5 c4 3d 53 b5 e9 bd
       0.07866616 -0.06936466 0.0961402 -0.11411538
000020 29 11 ac 3d a0 9d bc bc 1c 1f 09 bc 74 33 0b 3c
       0.084017105 -0.02302438 -0.008369233 0.008496154
000030 47 3e bb 3d 40 b9 94 3c 94 41 73 3c 28 16 f1 bc
       0.09142738 0.01815474 0.014847178 -0.02942951
000040 31 1f 30 3d 93 c9 4d bd d1 e2 b2 3d 25 ee cb 3d
       0.042998496 -0.050241064 0.08734668 0.09957532
000050 83 be bb bd 35 14 e1 bd d1 7a bf 3d 9b ef 1d bd
       -0.091671966 -0.10990182 0.09349597 -0.038558584
000060 2b 01 cf 3d c8 4b d0 3c b1 f8 5f 3d 37 f6 8b bd
       0.10107645 0.02542676 0.05468053 -0.06834071
000070 19 6d 46 3d 07 32 1f bd 37 f5 ff bd 7b 23 9b 3d
       0.048443887 -0.03886607 -0.12497943 0.07575127
000080 13 04 8c bd 85 cb c7 3d f4 9b 49 3d ab f6 e0 3d
       -0.068367146 0.09755615 0.049220994 0.10984548
000090 10 a1 0e 3d 14 bc ad 3c 68 6e 21 bd d0 a4 cf bb
       0.03482157 0.021207847 -0.039411932 -0.006336786
0000a0 fb 94 cf bd e9 75 d8 3d 23 24 22 3c 04 36 92 bc
       -0.10135838 0.105693646 0.009896311 -0.017848022
0000b0 dd 63 ca 3d f8 b0 7b bd 15 db ed 3d a4 4a 03 bd
       0.09882329 -0.061448067 0.11614052 -0.032053605
0000c0 5f 1c f0 bd 2d 00 0d bc 39 17 94 3d c7 5a d9 3d
       -0.11724161 -0.008605999 0.07230992 0.106130175
0000d0 fc f4 5d 3d 1c 33 81 bc 77 7d a7 bd d0 b5 4d 3d
       0.054188713 -0.015771441 -0.081782274 0.050222218
0000e0 1b f6 c3 bd 54 d5 cd 3c 6d 63 1b bc e4 1f b1 bc
       -0.09568425 0.025126137 -0.009484154 -0.021621652
0000f0 65 6a 05 3c a3 ed a7 bd 91 6e bb 3d 57 6e c9 bd
       0.008143042 -0.081996225 0.09151948 -0.09835499
000100 25 cb c1 bc c1 d0 8a 3d 45 16 c9 3d 89 43 cc 3b
       -0.023656437 0.06778098 0.09818701 0.0062336368
000110 9f da 10 3d 69 d7 16 bd e1 5a 0d bd a5 79 28 3c
       0.035364743 -0.036826525 -0.034510497 0.010282909
000120 75 27 b9 3d 71 5a 8e 3d a3 12 e2 3d 0f 8a 02 3d
       0.09040729 0.06950844 0.11038711 0.031869944
000130 43 c7 b1 bd 4d 32 61 bd c1 d8 12 bd 2d a6 24 bd
       -0.08680584 -0.05497961 -0.035851244 -0.04019754
000140 0f 6c b3 bd 5f 8c 2c 3d 7f cd 41 3d c1 1f 98 bd
       -0.08760845 0.042126056 0.047315117 -0.074279316
000150 79 ec 81 3d f7 87 75 3d 81 ed 89 bd 69 7c cc 3d
       0.06343932 0.05994412 -0.067347534 0.09984667
000160 eb 3c 2b 3d 37 42 ae 3d 9b 97 18 3d ad 6e ea bc
       0.041806143 0.08508723 0.037253957 -0.028617227
000170 27 a2 da 3d ed 12 bd bc cb 2a ff bd 61 e1 3f bd
       0.10675459 -0.023080314 -0.12459334 -0.046845797
000180 1c d1 ef 3d 7c d8 a4 bd 3c e8 fb 3d c3 7d 93 bc
       0.11709806 -0.080491036 0.123001546 -0.018004304
000190 3c b6 8b 3d e6 94 96 bd 71 50 73 3d a6 4d 8e 3d
       0.06821868 -0.07352619 0.059402887 0.06948404
0001a0 d2 08 e9 3d 95 c7 74 3d b6 14 97 bd f3 7b e7 bc
       0.113786355 0.05976065 -0.07376997 -0.028257346
0001b0 31 fb 0a bc 86 12 c4 bd b0 18 ce 3d 1d 01 53 3a
       -0.00848274 -0.095738456 0.100633025 0.0008049177
0001c0 8d 59 e5 3c 91 04 49 3d d3 d2 67 bd 06 3c ed bd
       0.027996803 0.04907662 -0.056597542 -0.11583714
0001d0 94 ec ad 3d 9d 7a ce 3c b6 c0 d6 bd 98 7f f3 bd
       0.08492389 0.025204951 -0.104859754 -0.11889571
0001e0 02 08 dd 3d 9e b4 b9 3d 44 d8 fa 3d 96 87 e7 bd
       0.10792543 0.09067653 0.12248281 -0.11305158
0001f0 16 e0 95 3d 78 30 c5 3d e0 3e c2 3d d6 1a e6 3d
       0.073181316 0.09628385 0.09484649 0.11235587
000200 aa 16 6b bd de 1f 15 bd e8 17 e8 bd 7a 9b 33 3d
       -0.05739466 -0.036407344 -0.11332685 0.043849446
000210 78 16 b7 3d c2 75 a5 bd 5c 2a 9a bd a6 f6 24 3d
       0.089398324 -0.08079101 -0.07527611 0.040274285
000220 d8 fe ea bd ba a3 a3 3d b1 af 80 bd 74 e5 f0 bd
       -0.11474389 0.07990213 -0.062835105 -0.11762515
000230 2f b9 ef bc ab 58 39 3c 4a 55 59 bd b0 94 ab bd
       -0.029263107 0.011312644 -0.053059854 -0.08377969
000240 8a bd 45 3d 5b ed 3b 3c 4c 12 f4 bd 1e fa 8b 3d
       0.04827646 0.011470164 -0.11917552 0.068348154
000250 9a b4 86 bd 2c a2 eb 3d b6 b3 dc bd fa e5 69 bd
       -0.06577416 0.11505541 -0.10776465 -0.05710409
000260 0e b5 31 3d 06 72 ab bd 3c 76 fc 3c eb c8 31 3c
       0.043385558 -0.083713576 0.030818097 0.010851125
000270 c6 35 88 bd 56 f5 06 3d 0e b5 e0 3d 0c 58 9e bd
       -0.066508815 0.032948814 0.109720334 -0.07731637
000280 fe c8 2b 3d b1 98 c3 bd 85 b9 99 bd ca 15 58 3d
       0.041939728 -0.09550608 -0.07506088 0.052755155
000290 13 91 fb bd aa 68 4a bd f2 a5 6b bd ab 16 f3 3d
       -0.1228353 -0.04941622 -0.057531305 0.11869558
0002a0 fb 0d ff 3d 51 a9 b6 bd 47 1e d1 bd a6 f3 63 3d
       0.124538384 -0.08919013 -0.10210853 0.055652283
0002b0 62 e7 67 3d 05 93 8d bd c5 d9 98 3a 50 fe 96 3c
       0.05661715 -0.069128074 0.001166158 0.018431813
0002c0 46 64 3f 3d 92 ee 5b 3d 3b a6 f7 3d 0b 0e 84 3d
       0.046726488 0.053694315 0.12092253 0.06447991
0002d0 f7 b1 92 bd 32 30 2a 3d 46 b8 d3 3a 58 c1 ad bc
       -0.0716285 0.04154987 0.001615294 -0.021210358
0002e0 6a 6a 0f 3d 12 5f 2d bd 7a 04 10 bd f3 b3 a7 bd
       0.035013594 -0.042326994 -0.03516052 -0.081886195
0002f0 eb 2e f1 bd 10 61 d2 bc 66 ac 79 bd ae 4a 62 3d
       -0.11776527 -0.025681049 -0.060955428 0.055247
000300 eb f0 f4 bd 9a eb bb bb 44 bd 00 be 4b 40 02 3d
       -0.11960014 -0.005734873 -0.12572199 0.031799596
000310 2f 15 96 bd 5f 00 22 3c d1 c4 58 bd 47 a0 b8 bd
       -0.07328259 0.009887784 -0.052922074 -0.090149455
000320 aa d4 fc 3c 76 41 b7 ba 31 f9 ba bd 93 48 0f 3d
       0.030863125 -0.0013981301 -0.09129561 0.03498132
000330 19 c5 e0 bd cb 79 79 3d 21 d8 41 bd 9d 5d e5 bd
       -0.109750934 0.060907166 -0.047325257 -0.11199496
000340 9f c5 6d 3d 13 5c 4c 3d ed 95 d2 3d 97 f5 da bc
       0.058049794 0.049892496 0.10282502 -0.026728434
000350 66 31 a5 3b dd 9e e6 bd 1f b8 15 3d 73 71 e7 3d
       0.005041289 -0.112607695 0.036552545 0.113009356
000360 79 42 00 bb 7f 32 a1 bd 8d 3e aa bd 95 9f 99 3d
       -0.001957087 -0.078709595 -0.08312712 0.07501141
000370 11 9e b9 3d fd 3c 26 bd ad ba 18 bd 99 9a 2a bd
       0.09063352 -0.040585507 -0.037287403 -0.041651342
000380 11 97 65 3d 18 50 8e 3d f1 3f 64 bc a4 c4 d8 3d
       0.05605227 0.069488704 -0.01393126 0.10584381
000390 4f be 7c 3c 68 de f6 3c 7a 8f e6 3d 68 63 93 3d
       0.0154262325 0.030135348 0.11257835 0.071966946
0003a0 18 f1 df 3c 8d 56 78 3d 6a 69 a7 bd 54 15 b4 3d
       0.027336642 0.060629416 -0.08174403 0.087931305
0003b0 50 a2 c9 3d e8 6d ea 3c d0 a6 b9 bd f4 ad ee 3d
       0.09845412 0.02861686 -0.0906502 0.11654273
0003c0 71 79 45 bc e3 55 0a bd f2 71 e6 bd 12 55 83 bd
       -0.01205288 -0.033773314 -0.11252202 -0.0641271
0003d0 97 03 68 bd 90 fc d2 bc e8 e1 94 bd 37 78 56 bd
       -0.05664405 -0.025755197 -0.07269651 -0.05236074
0003e0 21 11 07 3d ae e3 8a 3d 81 82 44 3d 46 57 e2 bd
       0.03297532 0.06781708 0.04797602 -0.11051802
0003f0 48 63 9e bc 25 77 7d 3d a0 69 b3 bd d4 91 a9 bd
       -0.01933445 0.061881203 -0.08760381 -0.08279768

bias f4 [6]
000000 89 c7 2b bd 12 8f 59 3d 78 a3 73 3d c0 49 92 bd
       -0.04193834 0.053114958 0.059482068 -0.07142973
000010 0f 04 8b bd ad 73 ed bd
       -0.067878835 -0.11594329

W f4 [6, 7]
000000 98 65 13 3e a9 0f 75 3f 3a 40 91 3e 48 06 64 3e
       0.14394224 0.9572702 0.28369313 0.22268021
000010 8c 77 6b 3e 0d 52 52 3f e2 e8 ef 3e 60 0f 7e 3e
       0.22994822 0.8215645 0.46857363 0.24810553
000020 d5 14 52 3f e0 80 88 3d e7 a2 19 3f 80 13 89 3c
       0.8206304 0.06665206 0.60014194 0.016732931
000030 60 d5 38 3e 4d e9 1a 3f af bd 38 3f 4a 24 6d 3f
       0.18050146 0.6051224 0.72164434 0.926335
000040 4e f6 ba 3e da a4 eb 3e 98 84 cd 3d ea cc 1a 3f
       0.3651604 0.4602421 0.10035056 0.60468924
000050 8f a7 30 3f 98 59 86 3e 00 7c ff 3a 47 d9 25 3f
       0.69005674 0.2624023 0.0019491911 0.64784664
000060 d0 13 97 3d cc b4 09 3f 40 d6 c6 3e c3 07 52 3f
       0.07376826 0.537915 0.38835335 0.82043093
000070 5e 2b 40 3f 5e 12 e1 3e 89 6d 18 3f 32 6f 35 3f
       0.75066173 0.43959326 0.5954214 0.70872796
000080 a8 1a b8 3d 07 b5 36 3f 93 53 1a 3f 63 13 72 3f
       0.08989459 0.71369976 0.60283774 0.9456083
000090 94 38 36 3e 46 a6 2f 3f f8 3e b2 3d c4 a5 06 3f
       0.1779502 0.6861309 0.087034166 0.5259669
0000a0 ae 4a 09 3f 5c 55 25 3f
       0.5362958 0.64583373

weight f4 [64, 7, 1, 120]
000000 39 71 03 3d 26 4f e6 ba b3 69 9f 3c 8f 44 b7 bc
       0.0320904 -0.0017571195 0.019459581 -0.022371558
000010 0d cc ce bb 73 80 fa bc 7d 2c a7 3c 7b c1 df bc
       -0.006310946 -0.030578827 0.020406956 -0.027313938
000020 72 f4 4c bb f5 fa 42 3a fa e2 69 3c 59 cf 95 3c
       -0.003127363 0.0007437908 0.014275307 0.018287348
000030 8c 10 95 bc f6 46 76 bc fb 36 9a 3c 71 26 a6 bb
       -0.018196367 -0.015031567 0.018825045 -0.0050705005
000040 c5 6c dc bb 0d c1 a3 bb 64 86 6d bc ce 84 7a ba
       -0.0067268335 -0.0049973787 -0.014497373 -0.00095565326
000050 27 1a d5 3c 0e 93 83 bc a1 b6 b5 bc eb 23 a2 bc
       0.026013447 -0.016061332 -0.02218181 -0.019792518
000060 4b f2 7f 3c 6f f7 be bc 06 53 40 3c 79 1a b6 bc
       0.015621732 -0.023311345 0.011738544 -0.02222942
000070 62 f5 65 bb 7d 1d 8a 3c 7b dc c4 3b 45 60 e1 3c
       -0.0035088887 0.016859764 0.0060077286 0.027511725
000080 9b 1e 8a 3b f2 1a 16 3a 71 b5 e1 bb 15 03 e3 bb
       0.0042150742 0.0005726061 -0.0068880846 -0.0069278576
000090 74 c9 3c bc cb 4c a2 3b b5 58 5a 3a 0b fb 00 bd
       -0.01152264 0.004953002 0.00083292584 -0.031489413
0000a0 d3 cc a1 3c 9d 0c f9 bb 1e a5 51 3b 33 5b 4b 3a
       0.019750988 -0.0076003806 0.0031989287 0.0007757425
0000b0 ae 93 0c 3c 26 78 de ba 8a 7e 31 bc 8a 49 9b bc
       0.008580131 -0.0016973063 -0.010833392 -0.018955965
0000c0 f6 c4 7f bc 75 ad b6 bc 70 ed d6 bc 8b f8 bd bc
       -0.015610924 -0.022299508 -0.026236266 -0.023189804
0000d0 e9 5c ee 3c 15 4f d3 bb e7 c2 89 3c cf 28 df 3c
       0.029097037 -0.0064486363 0.01681657 0.027241139
0000e0 b9 84 e4 3c 38 4b 92 bc 2a 98 69 3c 64 ed 23 bc
       0.027895318 -0.017858133 0.01425747 -0.010005329
0000f0 75 84 ae bc 63 b9 d3 3c e2 b5 61 bc 3a d8 03 3c
       -0.021303395 0.025845235 -0.013776274 0.008047158
000100 db 34 b7 bc eb 1c 8f 3c f5 71 d0 bb 6b 3f f1 bc
       -0.02236407 0.017469844 -0.006361241 -0.029449185
000110 0f c5 8a 3c 39 a2 dd 3c 63 59 03 3d 36 1c 0c b9
       0.016939668 0.027054893 0.032067668 -0.0001336195
000120 70 c2 c4 bc d5 97 b1 3c 0b eb c5 3b de cd 33 3c
       -0.024018496 0.021678844 0.006039982 0.0109743755
000130 e3 73 90 3b 1f 9e 80 3c 68 55 91 ba f3 60 8e 3c
       0.004408346 0.015700398 -0.0011088075 0.017380213
000140 f7 5a da bc b9 21 f1 3c df b1 fb bc 71 42 fd 3b
       -0.026654704 0.029435026 -0.030724464 0.0077288677
000150 a6 11 2a 3c 8b ad 0c bd 52 2d e8 bc 5f 7f a5 3c
       0.010380184 -0.03434519 -0.028341923 0.020202337
000160 5c f6 35 bc 0b 58 f7 bc e0 60 16 bc 36 55 6e 3c
       -0.0111061 -0.03019335 -0.00917837 0.014546683
000170 13 72 a2 bc 0b 96 07 bd ab 7a b9 3c 13 c3 d3 3b
       -0.019829785 -0.033102077 0.0226415 0.0064624636
000180 42 a4 31 bb 61 c5 ea bb a9 2b f7 3c 03 90 d9 3b
       -0.0027105962 -0.0071646427 0.030172186 0.006639482
000190 9b dc d1 bc 88 e1 53 bc 4f 72 d2 3c d9 17 01 3d
       -0.025617888 -0.012932189 0.025689272 0.031516884
0001a0 6d eb a1 bb 57 79 7b 3c 32 fe bc bc e7 db a3 ba
       -0.004941395 0.015348754 -0.023070429 -0.0012501449
0001b0 7b a2 9d bc 41 9f e7 3c 75 e5 01 3d ed fe f8 bc
       -0.019242516 0.02827418 0.031712968 -0.030394996
0001c0 a7 58 9f ba 11 27 b1 3c 35 64 bd 3c 61 f5 9c bc
       -0.0012157158 0.021625074 0.023119071 -0.019159975
0001d0 2a 2f 97 bc ab 9b 84 3b fb 44 0a 3d 48 13 84 ba
       -0.018455107 0.0040468774 0.03375719 -0.0010076547
0001e0 b2 7d cb ba d6 52 bd bc 6e 6c 93 3b 9e 67 ae bb
       -0.0015525131 -0.023110788 0.00449901 -0.0053224107
0001f0 76 7f c6 3b 85 ca 07 3c 76 34 7e 3c f1 8f 31 3c
       0.006057675 0.0082880305 0.015515437 0.010837541
000200 62 dd fb bb a6 55 06 3d b5 f0 33 3c 7b 3b d1 bc
       -0.007686303 0.032796524 0.010982682 -0.025541058
000210 e2 b2 bd 3c 4e 73 80 ba ce e0 b6 bb 73 76 1d bc
       0.023156587 -0.0009799988 -0.005580998 -0.00961076
000220 02 0b de bb 34 af c4 b9 9a 09 ba bb 3a 11 22 3b
       -0.0067762146 -0.0003751457 -0.005677414 0.0024729506
000230 e6 95 8a bc 4d 79 74 3c 9b 70 f2 bc 41 d5 60 3c
       -0.01691718 0.0149214985 -0.02959471 0.013722719
000240 09 94 69 3c 2a 36 5f 3b 2e 09 d6 3b 96 9b 4d ba
       0.014256486 0.0034059384 0.006531856 -0.00078433135
000250 93 12 e1 bc f6 57 da 3c 71 75 59 3c 86 8b 3f bb
       -0.027474677 0.026653271 0.013272629 -0.002922745
000260 b9 83 79 bc 2e df 8b 3a 94 a0 a3 bc 28 11 8e 3c
       -0.015229159 0.0010671371 -0.01997403 0.017342165
000270 0e a7 f5 bb aa 5c ca 3c 65 17 5b 3c de bc dd 3c
       -0.007496721 0.024702389 0.013372277 0.027067598
000280 0c 9c 96 bc 12 5f 05 bd 4e 73 fd bc f6 0e ca 3c
       -0.018384956 -0.03256137 -0.03093877 0.024665337
000290 42 32 97 bc 14 e5 97 bc 5f 08 50 bc 62 7e b6 3c
       -0.018456582 -0.01854185 -0.012697308 0.02227706
0002a0 97 7c b9 bc c4 4c cb bc 3e c4 92 bb e6 9a eb bc
       -0.022642417 -0.024816878 -0.0044789603 -0.028760385
0002b0 f1 ca de bc 64 a2 89 3c 1c aa dc bc a2 80 02 bd
       -0.02719638 0.016801067 -0.026936583 -0.031860955
0002c0 0b f1 f8 bc b3 41 ee bc c0 c1 db 3c 56 c8 41 ba
       -0.030388376 -0.029084062 0.026825786 -0.0007392218
0002d0 35 dc b3 bc 7c 0a 00 3d be 26 d4 bb 06 d1 98 3b
       -0.021955589 0.03126 -0.006474345 0.0046635894
0002e0 5a bf 9a bb 4a cc 9a bb 95 21 54 3c 0d 9f 60 bc
       -0.004722518 -0.00472406 0.01294746 -0.013709796
0002f0 5e 8d a7 3c 0b 5e e6 bc 1d 52 34 3c ba 38 91 bb
       0.020453151 -0.028121015 0.011005905 -0.004431811
000300 5c 60 a7 bc fc 83 e1 3c b6 7a d8 bc f5 b4 42 3c
       -0.02043169 0.027528755 -0.0264257 0.011883964
000310 5a 75 14 3b 3e ba c5 bb 1f 68 81 bb 45 07 58 3c
       0.0022652955 -0.0060341647 -0.00394918 0.013185327
000320 69 b4 5d b9 90 a7 f2 3c ca 07 ab 3c af d0 eb bc
       -0.0002114341 0.029620916 0.020877738 -0.028786032
000330 2f aa 47 bc 3a 7c b1 bb a1 b8 8e bc 2c 39 e1 3c
       -0.012186571 -0.0054164203 -0.017422022 0.027493082
000340 30 e0 ef 3c cf 26 60 bc 88 07 b2 3c 54 16 03 3d
       0.029281706 -0.013681128 0.021732107 0.032003716
000350 30 df 85 3c a5 db 59 bc 82 04 b8 3c 74 46 02 3d
       0.016341776 -0.013296996 0.022463087 0.03180547
000360 17 a1 35 ba 34 ad fa 3c 89 8b ab bc 81 f0 74 bc
       -0.00069286063 0.030600168 -0.020940559 -0.014949919
000370 51 06 63 3c 12 1d b5 3c 06 33 cc 3c 65 76 35 bc
       0.013856486 0.022108588 0.024926674 -0.011075591
000380 40 2c 92 3c 48 77 01 bd af 60 cb bc 1e 25 bf 3c
       0.017843366 -0.031607896 -0.024826376 0.023333129
000390 e9 4c 70 3b c6 06 3c bb 76 60 be bb 36 78 8e bc
       0.0036666936 -0.002869056 -0.005809839 -0.017391305
0003a0 56 3a dd 3c 29 0c 23 bc 19 ab 67 3c e5 de 1b 3c
       0.027005356 -0.00995163 0.014139914 0.009513591
0003b0 1c 0e ca bc 34 98 c1 3c 17 d5 0e bd 22 b1 92 bb
       -0.024664931 0.023632146 -0.034871187 -0.0044766823
0003c0 a4 34 08 3d b1 4a c6 bc a9 17 b0 39 49 c4 b5 3b
       0.033253327 -0.024205538 0.00033586964 0.0055470807
0003d0 dd fc 84 bb 6c 1a 00 3d e7 8e 8e 3c 05 8e 18 3c
       -0.004058464 0.031275198 0.017402126 0.009311204
0003e0 3f cc c6 3c 71 a5 05 bd 19 74 15 3c 4b b4 94 bb
       0.024267314 -0.03262848 0.009121918 -0.004538094
0003f0 dd cf 36 bc bf d0 12 bc c1 9d 6c 3c 49 22 cf 3c
       -0.011157957 -0.008960902 0.014441908 0.025284903

bias f4 [64]
000000 b4 64 03 3c ee 71 dc 3c 1f dc e1 3c 75 e2 09 3c
       0.008019615 0.026909795 0.027570782 0.008415808
000010 87 24 b0 bc ca 96 f4 bb 91 78 59 bc 48 84 8b bc
       -0.021501793 -0.0074642645 -0.013273374 -0.01703085
000020 f2 8e f6 3c 88 9d bb 3c 45 0b 85 bc ed 66 99 3c
       0.030097459 0.022902265 -0.016240725 0.018725837
000030 fa 2d 3c 3c db 87 49 3c ce 73 04 bd ec a4 c5 bc
       0.011485571 0.012300457 -0.032337002 -0.024126492
000040 e4 50 e9 bc a8 68 6f 3c 6a a7 9b bc bc 37 da bb
       -0.028480954 0.014612354 -0.019000728 -0.006659476
000050 4a 68 5d bb fb 4b fb ba 9b 4d ea 3c 7a 2d 37 3c
       -0.0033784085 -0.0019172424 0.028601458 0.011180276
000060 50 0d 00 bc e8 75 3d 3a 4e e5 d4 bb bf 57 86 b9
       -0.007815674 0.0007227347 -0.006497062 -0.00025623848
000070 c3 6d b6 bc ad 49 9c 3c cf dc 7f 3c 00 be f0 bc
       -0.022269135 0.0190781 0.01561661 -0.029387474
000080 80 f0 81 3c a6 a1 5a 3c aa 1b 9d bc b1 dc bc 3c
       0.01586175 0.013344204 -0.01917823 0.023054453
000090 f1 9a 7e bc 78 bb d5 bc e8 1a 8e 3c e4 df ac ba
       -0.015539871 -0.026090369 0.017346814 -0.0013189283
0000a0 37 0c 39 3a 97 35 d6 3c 07 09 c9 ba 15 79 e4 3c
       0.000705901 0.0261486 -0.0015337773 0.027889768
0000b0 0c 66 e1 3c 89 6d 3a 3c 7c 19 af 3c 71 2b 2a 3c
       0.02751448 0.011378654 0.021374457 0.010386334
0000c0 4b 3c 03 3d f7 b4 3d bb 7f 14 7d bc 70 bf be 3c
       0.03203992 -0.0028946975 -0.015446781 0.023284644
0000d0 a3 df b4 bc e8 61 92 3c 9d fd cd b9 45 9c 04 3c
       -0.022079295 0.017868951 -0.00039289604 0.008093898
0000e0 0d c3 cc bc a2 cb 5c 3c b9 7f e0 bc 1b a8 16 3c
       -0.024995351 0.013476284 -0.027404653 0.009195353
0000f0 90 83 07 3d 8c 8b 34 bb 98 8b 87 bb 2e 11 b5 b9
       0.033084452 -0.0027548997 -0.004136514 -0.0003453581

weight f4 [128, 64]
000000 bb 78 c7 bd f6 c1 ef 3c 09 ff 9d 3b bf 06 c4 3d
       -0.097398244 0.029267292 0.0048216623 0.09571599
000010 c8 6d c1 bd ad ed 1a 3d 48 8d 3c 3d ca 35 f1 bc
       -0.09444767 0.03782432 0.046033174 -0.029444594
000020 9d 5f f2 bd 7d 86 80 bc 2a e2 ac bd 5e a4 c2 bd
       -0.11834643 -0.015689129 -0.08441575 -0.09504007
000030 8b 87 1b bd ec b2 8c 3d 61 1f 78 3d 51 66 c6 bd
       -0.03797106 0.06870064 0.0605768 -0.09687484
000040 a6 1a 0c bd 7b e2 30 bd 80 09 4a bd b9 23 ed 3d
       -0.0342051 -0.04318474 -0.049325466 0.11579079
000050 f4 99 fa 3c d9 f2 df 3d 18 ac ec 3d b9 c2 e2 3d
       0.030590989 0.109349914 0.11556262 0.11072297
000060 1c 23 b7 3d b6 bf 80 3d 05 5f c7 bd ac fc fe 3c
       0.089422435 0.06286566 -0.097349204 0.031126343
000070 b0 7d 86 bd bd ba 0f bc 5b 0d 8e 3d 90 12 8e 3d
       -0.06566942 -0.008772549 0.06936141 0.06937134
000080 3d 10 97 bc d6 1e b7 bd a6 21 0f bd c6 21 b9 3d
       -0.01844036 -0.08941428 -0.0349442 0.09039645
000090 e4 d4 93 bd d2 1c 87 bd f7 95 ad 3d 35 e3 f6 3d
       -0.0721834 -0.06597294 0.08475869 0.12055055
0000a0 7c 30 68 3d e8 b5 c3 bc 27 f8 5e bd 55 a6 a2 3d
       0.056686863 -0.02389045 -0.054435875 0.079418816
0000b0 4a 0e fa 3d 71 b6 91 3d 36 95 60 3d 88 f4 44 3d
       0.12209757 0.07114876 0.0548298 0.048084766
0000c0 37 a7 8c bd 7d fb c7 3d 70 99 95 3d 12 44 a8 3d
       -0.06867831 0.097647645 0.073046565 0.082161084
0000d0 e1 f8 b0 3c d5 47 c5 3c e8 3b e6 bd 5d 52 b2 bd
       0.02160305 0.024082104 -0.11241895 -0.08707116
0000e0 ed ab a1 bd b7 e4 a6 bc 8a e6 de 3c 2d cb d2 3d
       -0.0789412 -0.020372732 0.027209539 0.10292659
0000f0 83 52 68 bd 2a d4 67 3d 70 a7 8e 3d 09 8c 63 3d
       -0.056719314 0.05659882 0.0696553 0.05555347
000100 cf 75 06 3d e2 01 da 3d 04 ac 08 bd 5e 0d e3 3d
       0.032827195 0.1064489 -0.033367172 0.11086534
000110 8a 43 ce bd 49 2d 58 3d 53 ff 39 bd c6 ed d7 bd
       -0.10071476 0.052777562 -0.04540951 -0.105433986
000120 b7 a6 80 3d ae 57 e3 bd 9b 3b bf bd 54 0f fe 3d
       0.06281798 -0.11100708 -0.09337541 0.12405267
000130 c8 6b bf 3b ce 9a 3b bc 20 01 58 bd 89 f1 a9 bd
       0.005841706 -0.0114504825 -0.052735448 -0.08298022
000140 23 05 6e bd ca eb f5 3d 02 a7 f6 3d 37 92 5c 3d
       -0.058110368 0.12007864 0.12043573 0.05385038
000150 17 ee 62 3c a7 04 1b bd c2 8f 99 bd 73 4b 27 3d
       0.01385071 -0.037846234 -0.07498123 0.04084344
000160 4d 0a af bc 18 74 a6 3c 64 3a ee bd 88 dc b6 3c
       -0.021367216 0.02031903 -0.11632231 0.022321954
000170 da fc a6 3d 17 70 41 3d 55 3a cf 3d e8 5a 9d 3d
       0.08153696 0.047226038 0.10118548 0.076833546
000180 bd b7 a2 3c 42 39 75 bd a2 4b 01 3e 05 c1 8a 3a
       0.019863004 -0.05986906 0.12626508 0.0010586089
000190 32 34 f7 3d f3 4b 48 bd 69 b2 c1 3d 08 f8 90 3d
       0.12070502 -0.048900556 0.09457857 0.07078558
0001a0 f4 95 bd b8 23 e0 71 bd 34 2b 9b bd 20 06 f1 3d
       -9.040153e-05 -0.059051644 -0.075766 0.117687464
0001b0 fc 1f 83 bd fc a6 dd 3d 31 70 3f bd bf 5c 11 3d
       -0.06402585 0.10822865 -0.046737853 0.03548884
0001c0 da 65 c1 bc d4 cc fe 3d c2 8e 04 3d 8c db c0 3d
       -0.023608137 0.124414116 0.032362707 0.09416875
0001d0 fe 3a b7 bd 52 2a ae bd f9 8e e3 3d 91 b3 ad 3d
       -0.08946799 -0.08504166 0.11111254 0.08481515
0001e0 cb 89 a3 bd f7 b6 cd 3d d9 69 e1 bd 21 3f ad 3c
       -0.07985266 0.100446634 -0.11006517 0.021148266
0001f0 49 48 a7 bd 06 dd 8c 3d 56 02 69 bc 47 45 df bc
       -0.08168084 0.068780944 -0.014221748 -0.027254714
000200 76 08 9a bd a0 0f c8 3d d1 77 1a 3d db c8 32 bd
       -0.07521145 0.09768605 0.037711922 -0.043648582
000210 a4 14 88 bc 5f 47 ab bc bc b6 d7 bc e4 5d ec 3d
       -0.016611405 -0.020908056 -0.026332252 0.11541346
000220 b2 b8 a8 bd e7 a6 8b 3c c7 62 87 bd 72 f6 ff 3c
       -0.08238353 0.017047359 -0.06610637 0.031245444
000230 5c 83 be bd 71 50 f0 3d ff 3b cd bd 96 c2 8f 3d
       -0.093023986 0.11734093 -0.10021209 0.07019536
000240 c5 94 fa bd 35 92 8b 3a dd f9 eb bd 92 2a 34 3d
       -0.12235407 0.0010648431 -0.11522267 0.04398591
000250 63 2b 98 3d 9a 8b a8 3d 97 59 89 3d 55 9b b6 3d
       0.0743015 0.08229752 0.06706541 0.08916346
000260 58 13 cc bd 20 ba dc 3d 12 7d a1 3d d8 99 89 3a
       -0.09964627 0.10777688 0.078851834 0.001049812
000270 39 a7 b4 3c f4 d8 ad bd 3a 51 d5 bd b3 00 e9 bd
       0.022052394 -0.08488646 -0.10415883 -0.113770865
000280 49 6d d9 3d 66 f6 8f bc 83 27 80 3d 97 b2 82 3c
       0.106165476 -0.017573547 0.06257536 0.015954299
000290 f7 1a 9a 3d 84 70 ad 3d 7f 10 f8 3d 16 d2 98 3d
       0.075246744 0.08468726 0.121125214 0.07461946
0002a0 fd f2 15 3d ef 36 fc 3c 38 cf bb bd 02 20 b7 3d
       0.036608685 0.030787913 -0.09170383 0.08941652
0002b0 3e 7b fc bc 5a 9c cd bd f2 a4 df ba f0 5c 9f bd
       -0.030820485 -0.10039587 -0.0017062707 -0.07781398
0002c0 bb 7f ae 3c c3 d3 31 bd 04 df e8 3d 13 19 4f 3c
       0.021301141 -0.043414842 0.11370662 0.0126402555
0002d0 96 9a d4 bd 36 5a da 3d d6 a7 1f bd 1e b2 bc 3d
       -0.103810474 0.106617376 -0.03897842 0.09213661
0002e0 e7 d9 0d bd 1f 8a c6 bd 16 b4 23 3d aa 73 9f bd
       -0.034631636 -0.09694313 0.039966665 -0.07785733
0002f0 18 e9 c0 3b b2 64 e8 3d 2f e6 f7 bd 0e 87 0d bd
       0.005887162 0.11347331 -0.12104451 -0.034552626
000300 18 2e 84 bd 5d 1e e3 bd 91 a6 8e 3c ed 7a 5d 3d
       -0.06454104 -0.11089776 0.01741341 0.05407231
000310 be ad 05 3c b0 12 cd bc 58 13 cd 3d 56 e0 d3 bd
       0.008159099 -0.025033325 0.10013455 -0.10345523
000320 60 19 e5 bc ea 0e db bd fd aa d2 3d 43 e0 b4 3d
       -0.027966201 -0.10696204 0.1028652 0.08831837
000330 60 cf 74 3d fa 6b 88 3d 08 ce b8 3b 87 95 a7 bd
       0.05976808 0.0666122 0.005639795 -0.08182817
000340 27 57 b3 bd be e1 b1 bc c3 06 cb 3d 4a 7a 2b bd
       -0.08756857 -0.021714088 0.09913399 -0.04186467
000350 f9 76 22 3d fd 52 b2 bd 89 e1 9e bd dc 32 03 bd
       0.039664242 -0.08707235 -0.07757861 -0.032030925
000360 93 f7 ba bd d0 a6 2b bd 15 83 93 bc 0a 2d 0b bd
       -0.09129252 -0.04190713 -0.01800684 -0.0339785
000370 7c 11 c8 bd bb 57 3d bc 03 18 bc 3d a1 b6 e8 bc
       -0.0976896 -0.011556561 0.09184267 -0.028407397
000380 d4 79 bb 3d 7e cd b7 bd 36 26 ab 3d 22 65 df bd
       0.09154096 -0.089747414 0.083568975 -0.109079614
000390 b5 5e 1e bd 0c 70 7e 3d e7 de 09 bd e5 f6 c5 3d
       -0.03866454 0.062118575 -0.033659842 0.09666232
0003a0 3c ea bc bd 18 a1 28 bd 5f 8c 3b 3d 74 c3 2b bc
       -0.09224364 -0.041169256 0.045788165 -0.010483611
0003b0 26 dd 71 3d f5 68 82 bd 28 08 4c bd 4b 2c a5 bc
       0.059048794 -0.06367675 -0.049812466 -0.020162722
0003c0 c4 cc 58 3d 6b 55 95 bd 90 e3 a7 3a 2e 47 1d bc
       0.052929655 -0.07291683 0.0012808908 -0.00959949
0003d0 89 f8 72 3d d2 42 ac 3c 28 82 58 bd 1e ad 06 bb
       0.059319053 0.021027956 -0.0528585 -0.0020549963
0003e0 6f 29 ca 39 51 dd 61 bc f3 a8 9a 3d cc 1c c5 bd
       0.00038559313 -0.013785676 0.07551756 -0.09624633
0003f0 66 44 92 3d e7 3a 9c bd 3c 7e 86 bd 63 f1 88 3d
       0.07141952 -0.07628422 -0.06567046 0.06686666

bias f4 [128]
000000 e0 7f 13 bd d9 56 ca 3d ba c1 ac bc 42 aa dc bd
       -0.036010623 0.09879846 -0.02108847 -0.107746616
000010 ca bd bf 3d 68 23 c8 bd cd 52 f1 bd 0a ee 7d 3d
       0.09362371 -0.09772378 -0.11783371 0.06199459
000020 41 0a 9c 3d 1f 75 de bb 23 37 88 3d 03 69 54 3c
       0.07619143 -0.0067888643 0.066511415 0.01296449
000030 92 11 ed 3c 52 de 92 3d b2 b1 0c bd 79 3e 03 3d
       0.028939042 0.071713105 -0.03434915 0.032042
000040 2f bd 7f bd 60 20 85 3d 41 7d bd 3c e1 58 f5 bd
       -0.06243628 0.06500316 0.023131015 -0.11979843
000050 fa c8 f5 bd 26 c0 ed 3d cd 93 87 bd 01 0f 4b 3c
       -0.12001224 0.11608915 -0.06619988 0.012393714
000060 80 21 f6 bd 69 48 b4 3d 3b d8 f3 bd df e7 04 bc
       -0.12018108 0.08802874 -0.11906477 -0.008111923
000070 ad bc df 3d 10 81 07 bd 84 eb 04 bc 77 05 09 3d
       0.10924659 -0.033082068 -0.008112792 0.033452477
000080 df e9 ce 3c af 4b 1b bd 2d 87 f3 bd 4b 5b c7 3d
       0.025258003 -0.037913974 -0.11891017 0.097342096
000090 79 db 64 3d 88 6d 43 bd 21 d4 21 bc 39 91 01 3d
       0.055873368 -0.04771188 -0.009877236 0.031632636
0000a0 b1 99 b1 bd df 84 b9 bd 89 65 b3 bd 89 c3 61 3d
       -0.086718924 -0.09058546 -0.08759601 0.055118117
0000b0 aa 1f aa 3d 72 90 56 bd ee 86 2d bd 2d 28 00 bd
       0.08306821 -0.052383848 -0.042365007 -0.031288315
0000c0 ad 21 8a bd 81 63 c8 bd 7b 64 4f 3d 13 e9 9e bd
       -0.067447044 -0.09784604 0.050632935 -0.07759299
0000d0 b8 af e3 bd 4a ab 91 3d 91 3c 2e 3d 0c 3d 4a bc
       -0.111175 0.07112749 0.04253823 -0.012343656
0000e0 fb 29 bf bd 30 4f 34 bd af fe 2e bd c7 70 ce bd
       -0.09334179 -0.04402083 -0.042723354 -0.10080104
0000f0 87 7b c2 3d 62 95 f6 bc 49 6c 90 3c f6 7b c5 3d
       0.09496217 -0.030100528 0.01762976 0.09642784
000100 d4 91 d3 ba 2d 0a 73 3c b4 93 a2 bd 43 2f 93 bd
       -0.0016141483 0.014833969 -0.079383284 -0.07186749
000110 db a5 f5 3d 55 52 ba 3c ba 25 38 bd f0 15 8f bb
       0.11994525 0.022744337 -0.044957854 -0.004366629
000120 c1 49 4e 3b 79 49 d6 bd 61 87 c0 3d f0 37 b0 bd
       0.0031477066 -0.104632325 0.094008215 -0.08604419
000130 20 86 aa 3d 19 d1 4d 3c d3 29 c7 3d 5f 7b 44 bd
       0.083263636 0.01256206 0.09724774 -0.04796922
000140 8e f3 35 3d 6f 77 91 bd 26 b0 0b 3d 32 f3 23 3d
       0.044421725 -0.07102858 0.034103535 0.04002685
000150 dc d8 c3 bd 96 29 f5 bd 9d cd 0e bd f4 be e5 3d
       -0.09562847 -0.119708225 -0.034864057 0.11218062
000160 83 e8 c1 bd 11 75 81 bd 78 65 84 bd 36 ee 7a bd
       -0.09468176 -0.06321157 -0.06464666 -0.061262332
000170 3f e0 42 3d d2 0d b0 bd d9 cb 84 bd fe fe 8e bd
       0.04757714 -0.08596386 -0.06484193 -0.0698223
000180 d9 ee 5e bd 67 0f f4 3d ab 5c 23 bc 81 41 cb bd
       -0.054427 0.11917 -0.009970824 -0.09924603
000190 e2 6d a0 3d 88 f4 56 3d 1d 82 ba 3d f6 44 3f 3d
       0.078334585 0.052479297 0.091068484 0.046696626
0001a0 9c 44 76 bd 1b fe d6 bd 4a e0 b9 bb 22 d8 26 3d
       -0.060124025 -0.104976855 -0.0056724893 0.040733464
0001b0 2f 23 6d bd db 98 d9 3b 33 08 e3 bd 99 9c fa 3b
       -0.05789488 0.0066405362 -0.11085548 0.0076480624
0001c0 c0 51 3d bd 90 f0 72 bd 1c 64 f0 bd 2c cb 4c bd
       -0.04622054 -0.05931145 -0.11737844 -0.049998447
0001d0 77 a3 81 3d 21 59 e8 3d 58 7a a0 3d 2b 1f 03 bd
       0.063300066 0.11345125 0.07835835 -0.032012146
0001e0 1a 47 87 bd ef 27 5c 3d 04 14 a2 3c 3b a5 ff bd
       -0.066053584 0.05374902 0.019784935 -0.12482687
0001f0 c9 89 cf 3c 54 a3 b7 bc ae 05 d7 bc cd 96 27 3d
       0.025334256 -0.022416748 -0.026247825 0.0409153

weight f4 [399, 128]
000000 96 90 53 bd db 08 08 3d 48 03 70 3d b3 9a 6f 3d
       -0.05165156 0.03321157 0.05859688 0.058497142
000010 12 99 3f bd 98 5c 2e 3d 5d c4 bd 3c e8 94 9e 3d
       -0.04677684 0.042568773 0.023164922 0.07743245
000020 10 e5 a7 bd e5 75 8f 3d 10 10 57 bd 8f 5d c4 bc
       -0.08197987 0.070049085 -0.052505553 -0.023970393
000030 7c a5 c0 3c fd 80 41 bd 07 31 6c 3d 54 1e 5b bd
       0.02351641 -0.047242153 0.057663944 -0.05349572
000040 f3 f4 05 3d ca a2 0e 3c 3f 3b f4 bc 4d 0d 84 3d
       0.032704305 0.008705804 -0.029813407 0.064478494
000050 48 50 77 3d 7c 25 01 bc 1f ed 95 3d aa ee e5 bc
       0.060379297 -0.007882472 0.07320618 -0.028067905
000060 57 57 98 3d d9 75 91 3d b2 e9 57 bd 6b 23 ae bd
       0.07438534 0.07102556 -0.052713104 -0.08502849
000070 70 b3 42 3d 4f 2f ab 3d 0a 09 63 bd ba a0 7e bb
       0.047534406 0.08358633 -0.055428542 -0.0038853125
000080 65 bd 02 3d 5c ab a5 3d dc 2f 19 bd dd aa 08 3d
       0.031918902 0.08089325 -0.037399158 0.033366073
000090 3c 75 f0 3c b4 e3 11 bd 2a 57 84 3d 24 de a6 3d
       0.029352777 -0.035617545 0.06461938 0.08147839
0000a0 43 6a 1e bc 4e fd a7 bd ef bf f5 bb 6e 4d 6f bd
       -0.009668889 -0.08202611 -0.007499687 -0.058423452
0000b0 16 ea b3 3d d6 28 68 bd f3 2a 09 3d 60 1a 95 bd
       0.08784883 -0.05667957 0.033488225 -0.07280421
0000c0 22 8f 53 3d 3f 76 57 bd e5 8f fc 3c fe d5 37 bd
       0.051650174 -0.052603003 0.030830333 -0.044881813
0000d0 5f b7 8d 3d f0 0a 87 bc e2 55 1a bd cd 7b a4 bd
       0.06919741 -0.016484708 -0.03767956 -0.080314256
0000e0 45 9f 64 bd 24 78 19 3d 27 d1 17 bc 74 53 4a bd
       -0.055815954 0.03746809 -0.009266174 -0.049395993
0000f0 91 f8 94 3d 7a e7 07 3d 78 06 a4 3d 70 9e a0 bd
       0.07273973 0.033179738 0.08009046 -0.078427196
000100 1f 16 3f bd 6e c6 0a 3d 47 88 d6 3c 48 07 5f 3c
       -0.046651956 0.033880644 0.026188029 0.013612576
000110 ec 67 93 bd 0a e8 0d bd de 55 a8 3d 84 f0 57 3c
       -0.07197556 -0.034645118 0.08219503 0.013179902
000120 a6 99 f3 bc 4b 81 09 3c 88 49 a4 bb da 5a 43 3d
       -0.029736351 0.008392642 -0.0050136484 0.047694065
000130 00 df 23 bd 35 21 80 3d e1 1e 59 bd 1f 7d 3a 3d
       -0.04000759 0.06256334 -0.053007964 0.04552948
000140 d3 be a5 3d 54 09 4f bc 3c f3 0a 3c b9 7c c6 3b
       0.080930375 -0.012636501 0.008480843 0.0060573486
000150 1e 12 63 3b 6e 76 28 bd e0 9c a0 3d 71 d6 b3 bc
       0.003464825 -0.04112857 0.078424215 -0.02195284
000160 60 74 15 3d f1 89 93 3d da 7c 7b bc f0 65 01 bd
       0.036487937 0.072040446 -0.015349591 -0.031591356
000170 e4 83 f1 3c 48 73 fb ba 28 75 98 bd 0e b5 6c 3d
       0.029481836 -0.0019184137 -0.07444221 0.057789855
000180 bd 7e 3f bd 23 ea 85 3c 86 76 94 3d 70 47 81 3d
       -0.046751726 0.016346997 0.07249169 0.06312454
000190 a2 f1 77 bd 4c e7 24 3d 70 ed 6a bc 8d 12 05 3d
       -0.060533173 0.040259644 -0.014338836 0.032488395
0001a0 ca 7a 3b bd 63 2d 9d 3d f4 90 88 bc 58 b5 f9 bc
       -0.045771398 0.076746725 -0.016670682 -0.03048198
0001b0 a7 8d 0b 3d 5f 12 31 3d 4a 2e 24 3d 0d 2a 80 bd
       0.034070637 0.04323041 0.040083207 -0.062580206
0001c0 5d 17 52 3c b8 07 a3 bd b7 92 62 bd b9 02 26 bc
       0.012822953 -0.079604566 -0.0553157 -0.010132485
0001d0 50 dc 86 3d 17 d6 83 3d dc 34 da 3c 24 c8 53 3d
       0.0658499 0.06437319 0.026636533 0.05170454
0001e0 67 52 a8 bc 11 52 81 bd 35 47 9d 3d bc b9 a8 bd
       -0.020547105 -0.06314481 0.07679597 -0.08238551
0001f0 b8 f3 a3 bd 3a 4f 4e 3d 9f ea 9a bd 8f 36 14 bd
       -0.0800547 0.050368525 -0.07564282 -0.036184844
000200 01 68 e6 3b 8b 8d 9b 3d 79 ed 86 bd c2 44 45 bd
       0.007031441 0.075953566 -0.06588263 -0.048161276
000210 b0 fc 9f bd 41 68 a3 3d 43 1a db bc c5 d2 49 3d
       -0.07811868 0.07978869 -0.026745921 0.04927327
000220 c4 fb da bc b0 e8 a4 bd 88 95 25 bd f9 2f 41 bd
       -0.02673138 -0.08052194 -0.040425807 -0.04716489
000230 5f c9 20 bc 8e 4c 8b bd 2f 2a f5 3c 4e f1 29 3d
       -0.009813636 -0.06801711 0.029927341 0.04148989
000240 30 64 8a 3b 84 e5 90 bd 82 af 96 3d 27 d5 2e bd
       0.004223369 -0.07075027 0.07357694 -0.042683747
000250 73 12 54 3b f1 14 a6 3c 92 d7 86 3d d8 55 64 bd
       0.003235963 0.020273658 0.065840855 -0.05574593
000260 c9 7c eb 3b 50 5d 85 3d 1d 2a 99 bd c6 07 23 3c
       0.0071865064 0.065119386 -0.074787356 0.009950584
000270 98 17 7f bd 24 6c 99 3d 0f be 0a 3c ea 49 a5 bc
       -0.06227836 0.07491329 0.008468165 -0.020176847
000280 7c 1f 8e bd 8b 26 a3 3d 79 a9 0f 3b bd 95 ee bc
       -0.06939599 0.07966336 0.0021921082 -0.029124135
000290 79 9d aa 3c 77 8d 7b 3b 18 37 2e bd 69 72 14 3c
       0.020827042 0.003838388 -0.04253301 0.009060481
0002a0 83 22 40 bd a9 ab 66 3d 83 7f 97 bc 76 2f f4 3a
       -0.046907913 0.05631605 -0.01849342 0.0018629867
0002b0 4d a5 07 3d 6b 1b 9f bb 79 af a6 bc 37 9b ab bd
       0.033116627 -0.0048555634 -0.020347344 -0.08379214
0002c0 0f b2 af 3c 0b 87 36 3d e5 14 ee 3c c8 b1 a2 3d
       0.02144721 0.04456238 0.029062698 0.07944065
0002d0 d1 39 92 bc c1 6c 80 3c 11 24 a6 3b ae ef 35 bd
       -0.017849835 0.015676858 0.0050702174 -0.04441803
0002e0 6b dd 83 bd 59 45 7d 3d 10 b6 7b bd 1f 42 f0 3c
       -0.064387165 0.061833713 -0.061452925 0.029328404
0002f0 dc 7d 50 3d bf 87 9b bd 90 28 5e 3b 39 b0 75 3d
       0.05090128 -0.07594251 0.003389869 0.059982512
000300 e6 a2 91 bc 21 05 80 bd 7e ed 73 3c 64 40 09 3d
       -0.017777871 -0.06250978 0.0148881655 0.033508673
000310 b3 b7 68 bc 0d 75 38 bc 36 3b 24 bc d6 c2 70 3d
       -0.014203954 -0.011258376 -0.010023883 0.05877956
000320 4a 57 06 3d 3b 66 0d 3d 95 7c 53 3c 10 58 71 3c
       0.03279809 0.034521323 0.012908121 0.014730468
000330 23 52 dc bc e1 60 77 bd 07 97 a8 3c 31 cf 08 3c
       -0.026894635 -0.060395125 0.020579828 0.0083501795
000340 37 1a 43 bd 59 ec 96 bd 67 24 3a bd 66 fa 30 bd
       -0.047632422 -0.073692985 -0.045444872 -0.04320755
000350 92 5d 7a ba a5 8c 9a 3d df 79 91 bd 03 4e b2 3b
       -0.0009550686 0.07546357 -0.07103323 0.0054414286
000360 50 27 4a bd fe aa 8c 3d 7d b0 75 bd ab 16 d6 bc
       -0.049353898 0.06868552 -0.059982765 -0.026133856
000370 63 7d fb 3c 21 8b 0b 3c 78 86 96 bc 65 01 55 bb
       0.030699437 0.008517058 -0.018374667 -0.0032502052
000380 69 87 a7 bc e9 f9 14 3d e3 08 1a 3d 78 e2 28 3c
       -0.02045031 0.036371145 0.03760613 0.010307901
000390 f0 4a 31 3d e2 f9 ea bb f5 c9 f5 bc 23 b0 29 3d
       0.043284357 -0.0071709016 -0.030003527 0.041427743
0003a0 11 7f 24 3c b3 13 e7 bc 41 b0 a0 bd 33 31 9c bd
       0.010040061 -0.028207636 -0.07846118 -0.076265715
0003b0 8e 4a 7f bd ee 7d 83 3d bc f2 1d bd 9d a9 96 3d
       -0.06232696 0.064205036 -0.038561568 0.0735657
0003c0 dc 54 cf 3c 3e d0 21 bc bc 56 80 3c 7b fe 86 3c
       0.025309019 -0.009876309 0.015666358 0.016478768
0003d0 73 2e 9c 3d 5e ca 5d bd 14 4f 46 bd 6c bd 23 3d
       0.07626047 -0.05414807 -0.04841526 0.03997557
0003e0 08 54 09 3d 00 6e 89 3d a8 c1 1d 3d 89 5a 57 bc
       0.033527404 0.06710434 0.038514763 -0.013144144
0003f0 5d 85 7b 3d e6 48 b0 3d ad e8 9c bd 1d 1f 75 bc
       0.061406482 0.08607654 -0.07661567 -0.014961031

bias f4 [399]
000000 65 4c 14 3d c0 a6 f6 3c 82 4e c1 bc 29 e3 18 bd
       0.036205668 0.03010881 -0.023597006 -0.03732601
000010 6f c0 08 3d db d8 79 bd bb 90 f9 3c 55 65 8a bd
       0.033386644 -0.060997825 0.03046452 -0.06757609
000020 05 06 b5 bd 77 a5 06 3d 06 33 10 bc 3d 26 77 3d
       -0.08839039 0.032872643 -0.008801227 0.0603392
000030 af 2c 56 3c a3 44 a0 bd bc 33 a7 bd 10 18 ac bd
       0.013072177 -0.078255914 -0.081641644 -0.08403027
000040 6f 0c bd bd 90 b9 d9 bc 61 7c 9b bc 49 82 8f bc
       -0.09230887 -0.02657774 -0.018980207 -0.01751818
000050 bf c2 47 bd 87 f9 5f 3d a0 d6 3c bd 31 d1 77 3d
       -0.04876971 0.054681327 -0.04610312 0.060502235
000060 1a 7e bd bc ec f9 d6 3b 6a 5c 89 bd 1d ac 27 3d
       -0.023131419 0.0065605547 -0.0670708 0.040935624
000070 10 66 79 bc 35 77 9c 3c bf 3c 57 3b a5 85 84 bd
       -0.0152220875 0.019099811 0.0032842604 -0.06470803
000080 3b ce c8 bc 8a f3 85 3d 85 d5 1e 3d 82 d5 b9 bd
       -0.0245124 0.06540592 0.038777847 -0.090739265
000090 81 a6 37 3d 08 b1 e3 3b 75 64 42 3d 23 5a 07 3d
       0.044836525 0.006948594 0.047459085 0.033044945
0000a0 ff 80 3e 3d 1c a1 eb bc ab 6c 34 bd 42 05 05 3d
       0.04650974 -0.028763346 -0.044048946 0.032475717
0000b0 7c 8b 9c 3d 0f 66 8d bd e4 9f 12 3b bd 8a 3a 3c
       0.07643792 -0.06904232 0.0022373134 0.011385617
0000c0 61 c1 a4 3d bc 04 bb bd ad ae 57 bb cf 0a 3c bd
       0.080446966 -0.091317624 -0.0032910511 -0.045908745
0000d0 33 2e 16 bb db 72 8b 3d 41 ff be bd 61 fe 55 bc
       -0.002291572 0.06809016 -0.093260296 -0.013061137
0000e0 7d 52 78 3d 1f b1 8e bd ad 39 72 3d c6 57 5c 3d
       0.060625542 -0.06967377 0.059137035 0.053794645
0000f0 e3 0f 58 bc 86 90 c5 bc 97 90 30 3d d6 ea 5a bd
       -0.013187381 -0.024116766 0.04310664 -0.053446613
000100 e8 d6 ab 3d 28 ac a1 3c 72 29 86 3d c6 7c 65 3d
       0.083905995 0.01973541 0.06550874 0.056027196
000110 e8 d7 84 bd ef 77 90 3d 09 c9 0d bd 5c 6d 9f bd
       -0.06486493 0.070541255 -0.03461555 -0.077845305
000120 e5 15 d9 bc 39 99 97 3d 7b 68 8e bd 04 21 d1 bc
       -0.026499698 0.07402272 -0.06953522 -0.025528438
000130 e9 55 9e bd 20 12 ba bc e3 16 61 3d ec f1 c1 bc
       -0.0773123 -0.02271372 0.054953467 -0.023674928
000140 9f c3 96 3d 3e c8 96 3d 6c c7 a8 bd 62 82 91 bd
       0.073615305 0.07362412 -0.08241162 -0.07104947
000150 46 a9 9c bc 53 9c a6 bd dc a4 ca bc 8a ad 1f 3d
       -0.019123685 -0.08135285 -0.024736814 0.03898386
000160 5e fc 9b 3c ba f6 f6 bc a8 9d 68 bd ec d3 1b 3d
       0.019041236 -0.030146945 -0.056790978 0.0380439
000170 fc d5 96 3c 74 8f b2 3c f4 d7 04 3d 7c 21 5d bd
       0.018412583 0.02179692 0.03243251 -0.05398701
000180 8e 72 cf 3b 69 89 13 bd a5 7d 96 3c 8b 5f 5f bd
       0.0063307947 -0.036019716 0.018370459 -0.054534476
000190 4f 9f a6 3d 1c 82 11 3d bc 34 1c 3d d6 ac 81 3d
       0.081358545 0.035524473 0.03813623 0.06331794
0001a0 c2 45 12 3d c2 56 18 3d e0 f4 9a bd 07 b0 63 bd
       0.035711057 0.037192114 -0.075662374 -0.055587795
0001b0 2a 24 d3 3c 3e 3e 06 3d 2f 85 d4 bc d1 81 a0 3d
       0.02577408 0.032774203 -0.025942413 0.078372605
0001c0 1f 8a b3 bd 74 e4 a9 bd 79 e9 3e 3d 25 52 b3 3c
       -0.08766579 -0.08295527 0.046609376 0.021889756
0001d0 b5 55 7a bd 99 3c b9 3d b6 48 9f bd 26 f5 a9 bd
       -0.061116893 0.09044761 -0.077775404 -0.082987115
0001e0 bc e2 4d ba db 4e 51 bd 6b da 16 bd c7 59 52 3d
       -0.00078539154 -0.051100593 -0.036829393 0.05135515
0001f0 0e f7 46 ba 8d b1 96 bd be b9 2f bd 29 9f d6 bc
       -0.00075899146 -0.07358084 -0.042901747 -0.02619894
000200 4c d3 87 bd 8c 40 9e b9 14 d4 9f bd 7e 93 77 bd
       -0.066320986 -0.000301842 -0.078041226 -0.060443394
000210 c9 f1 13 3d 41 d9 4e 3b 44 72 2e bd 20 97 14 3d
       0.036119256 0.00315626 -0.04258944 0.036276937
000220 c0 5a 1d 3d e5 65 8a bd e4 0c a3 3d 6d 60 d5 3b
       0.038416624 -0.06757716 0.07961443 0.006511739
000230 9e 19 87 bd a3 d6 94 3d fb 3a a4 bd cd 05 dd bc
       -0.06596683 0.07267501 -0.08019062 -0.026980305
000240 99 40 9c bc 9b fc 35 bd 5f 0c 65 3d c7 0e 87 bd
       -0.019073771 -0.044430356 0.05592 -0.065946154
000250 54 43 19 3a 60 b8 a1 bc 76 01 0e 3d c9 a3 bd bb
       0.00058465195 -0.019741237 0.034669362 -0.005787347
000260 68 07 53 bc c3 7a 14 bd 8e ab a6 3d c6 83 84 bd
       -0.012880184 -0.036249887 0.0813819 -0.06470446
000270 59 34 29 3d 56 de 03 3d 6c fc 07 3d b0 82 c0 bd
       0.04130969 0.032194458 0.033199713 -0.09399927
000280 a5 9d 4a 3c cc 45 02 bd 25 40 56 bd ec 7c 55 3c
       0.012366687 -0.031804845 -0.052307267 0.013030272
000290 64 55 93 bc e9 ab 0a bc cb 87 85 bd c7 89 5b bd
       -0.017985053 -0.008463838 -0.06520041 -0.05359819
0002a0 65 bb 03 3d 55 26 10 3d a7 86 9e 3d 41 ac 93 bd
       0.032161135 0.035192806 0.07740527 -0.07210589
0002b0 72 6a a4 3d 1a 8c 6c 3d 3c 89 4c 3d 88 06 09 3c
       0.08028115 0.0577508 0.049935564 0.008363374
0002c0 4b 4c dd 3c 56 dc 2f 3c 48 57 85 bd f7 a3 26 3d
       0.027013918 0.0107336845 -0.06510788 0.040683713
0002d0 ff 9f 9d 3d ec 36 9e bd 75 87 e6 3c 59 27 19 3d
       0.076965325 -0.07725319 0.028140763 0.03739104
0002e0 8d 22 92 bd 41 b7 a7 bd 11 f7 1b 3d c9 64 82 3d
       -0.07135496 -0.0818925 0.038077418 0.063668795
0002f0 21 e7 94 bc 17 ce 01 bd f3 2a 9d 3c 36 f6 50 b9
       -0.018176617 -0.031690683 0.019185519 -0.00019928147
000300 c7 c9 bf bd 79 14 ae bd 45 dc d0 3c 3e 57 63 3d
       -0.09364658 -0.084999986 0.025495658 0.055503123
000310 91 5a a3 bd e8 09 33 3d 2f 54 69 3d 72 7d 73 bb
       -0.079762585 0.04371062 0.05696505 -0.0037153629
000320 d0 9c 8a 3d d6 2d d9 3c 97 cd 92 3c 61 e5 36 3d
       0.06768191 0.026511114 0.017920299 0.044652347
000330 02 ae 9e 3d 9b 64 8b bd bb 19 97 3d 15 2a 77 3d
       0.07748033 -0.06806298 0.073779546 0.060342867
000340 44 85 4f bd df b8 82 3c 93 9c 83 3c d1 e2 bf bc
       -0.0506642 0.015957294 0.016065871 -0.023423584
000350 aa e7 f9 3c 15 b7 8e bd 13 30 89 bd 9e b2 33 3c
       0.030505974 -0.06968514 -0.066986226 0.010967879
000360 f8 6a 9f 3c b7 8e 33 3d f3 91 2e 3c 13 1c 29 bd
       0.019460186 0.043837275 0.010654914 -0.04128654
000370 0f 0d d7 ba 1b 28 78 3d 2b 54 fd 3a c5 f3 a8 bd
       -0.001640709 0.060585123 0.0019327452 -0.0824962
000380 42 2e 8b b9 5c 32 0b 3b 5b 40 71 3c 41 05 8b 3d
       -0.0002654661 0.0021239733 0.014724816 0.067881115
000390 26 57 d5 3c 27 6b 96 bd 3e cc b2 bd c8 ba 9b bd
       0.026042532 -0.073446564 -0.08730362 -0.07603985
0003a0 95 0e 95 3d 28 cb 89 3d 5c 33 04 bd b8 11 4a 3d
       0.07278172 0.06728202 -0.032275543 0.049333304
0003b0 b1 64 7e 3d 6f ea 93 3d a1 56 bd bd 71 22 19 bc
       0.062107746 0.07222449 -0.09245039 -0.00934659
0003c0 fe da 86 3c 4c 19 95 bd ad 0c 80 bd f6 26 9b bd
       0.016461845 -0.072802156 -0.06252418 -0.075757906
0003d0 36 f1 9b bb 86 36 88 3d 99 37 48 bd 46 f3 98 3d
       -0.004758979 0.066510245 -0.048881147 0.07468276
0003e0 a9 7a 8e 3b b6 2c ac bc 3d 16 94 bd c0 88 ea bc
       0.0043481183 -0.021017414 -0.07230804 -0.02862966
0003f0 90 e5 92 bd c7 f4 90 bc ec a6 86 bd 95 82 9f 3d
       -0.07172692 -0.017694844 -0.065748066 0.077885784
